models/01-16.0_10x33.pt (torch, 18621 bytes, 6 tensors)

conv.weight f4 [2, 1, 5, 5]
000000 22 91 60 3e d9 64 94 3d 77 c7 1a 3e 1c c7 74 3d
       0.21930364 0.07245798 0.15115152 0.059760198
000010 e6 c7 a5 be 50 90 bf 3d 57 4a 09 3e a4 ca 22 3e
       -0.32379073 0.09353697 0.13407265 0.15897614
000020 76 df 25 3d 25 94 2b be c8 75 da 3d 0c 3c 94 bd
       0.040496312 -0.16755731 0.10666996 -0.072380155
000030 d9 4a 47 bc 75 a4 27 be 6c e6 dd 3d 87 45 25 bd
       -0.012163841 -0.16371329 0.10834965 -0.04034951
000040 17 1d e1 be c1 04 70 be a5 3c d1 bd e6 f0 91 3e
       -0.43967506 -0.23439313 -0.10216645 0.28504103
000050 76 f6 ee be e4 f6 14 c0 65 e2 67 bf f2 2e 8f bd
       -0.4667241 -2.327569 -0.90579826 -0.06991376
000060 60 64 76 3d 1b 49 85 3d cf ea 06 bf b0 43 5e 3e
       0.06015432 0.065080844 -0.5270204 0.21705508
000070 90 f0 0f 3e d9 06 e7 3d d9 d4 78 be 66 56 79 be
       0.14056611 0.11280603 -0.24299945 -0.24349365
000080 8b 09 ba 3e c9 b5 a2 3c d8 33 43 3d a9 a8 33 3e
       0.36335406 0.019862073 0.047656864 0.17544807
000090 d8 bc 80 bd 1f 50 09 be e1 f1 4a 3e 05 d1 05 3c
       -0.06286019 -0.1340947 0.19818832 0.00816751
0000a0 a1 de 87 3c fb f4 d8 bd 31 0b 9d 3d ce 38 3b 3d
       0.01658565 -0.10593601 0.0766815 0.04570847
0000b0 d7 79 e3 3d 1e 9b e9 3b bb 8b 13 bd cc ea d9 bc
       0.111072235 0.007129087 -0.03602193 -0.026601218
0000c0 b3 78 d8 3d b4 2d 12 bd
       0.105698965 -0.035688117

conv.bias f4 [2]
000000 c1 84 fb 3d 5f 0c c4 bb
       0.1228118 -0.00598292

z_linear.weight f4 [33, 105]
000000 cf 7c a9 be db 84 19 be 44 63 40 bb 55 bd 86 be
       -0.33103034 -0.14992087 -0.0029356042 -0.26316324
000010 c0 58 fd 3b 59 5d 07 3d ae e9 51 be 00 d6 4b bd
       0.007731527 0.033048008 -0.20499298 -0.049764633
000020 90 9d 59 3e d3 d7 c3 bd 5b db a2 bd c1 5f 0e 3e
       0.21251512 -0.095626496 -0.07951995 0.13903715
000030 e0 89 21 3e 54 12 9b be bd b8 11 3e 19 aa 77 3e
       0.15775251 -0.3028742 0.14230628 0.24185981
000040 25 1f f1 3d ff 7b 80 3e 9d 6e 69 3c 2e 6e 60 be
       0.117735185 0.25094602 0.014247564 -0.2191703
000050 d2 9e 19 3c f7 df 0f 3e 52 70 3e 3c f2 e8 6c 3c
       0.009376245 0.1405028 0.011623459 0.014459835
000060 2b 8a d7 3d 0b 6a b4 bc 71 6e f1 bb 56 2b ae ba
       0.105244 -0.022023221 -0.007367902 -0.0013288062
000070 5e be 6b 3d 9e 4e 19 3d 39 2f 81 bd 76 6a 22 be
       0.057554595 0.03742849 -0.06307835 -0.15860924
000080 dc 4e 04 3c 4c 49 2f 3e 3d e3 a4 bd 5f 44 98 3d
       0.008075442 0.17117804 -0.08051155 0.07434916
000090 62 32 04 bf c7 f9 bf be 0c 7a 82 bd 2e fd 84 be
       -0.5163938 -0.37495252 -0.06370935 -0.2597441
0000a0 b6 c7 3a 3e d5 12 97 3e 90 fd 36 bf 73 28 60 bd
       0.18240246 0.29506555 -0.71480656 -0.054726075
0000b0 3d 14 67 bd f9 09 3f be 02 85 a3 bd 51 3e e7 bc
       -0.056415785 -0.18656148 -0.079843536 -0.028227957
0000c0 6b e1 8a 3d b2 4d 22 be ca e5 4d be 63 7c 18 bd
       0.06781276 -0.15849951 -0.20107189 -0.037228
0000d0 cc 98 02 bd f9 05 71 bd f9 23 27 3c 29 28 96 bd
       -0.031884 -0.058843587 0.010201448 -0.07331879
0000e0 03 d8 d5 bd d8 59 77 3c 4d 72 bd 3d ae d8 24 be
       -0.104415916 0.015097104 0.09250317 -0.16098282
0000f0 80 77 d9 3d 06 6c 9f 3d 35 88 a2 bc b1 2c 1a ba
       0.10618496 0.07784276 -0.01984034 -0.00058812933
000100 c8 1d 80 bd c7 0b ae bc 3b 60 b9 3d d3 e7 fe bd
       -0.0625568 -0.02124585 0.09051558 -0.12446561
000110 6f f8 9e bd 2c 5c b1 bd 6c c7 09 be 34 21 3f 3e
       -0.07762229 -0.086601585 -0.1345498 0.1866501
000120 68 41 0a 3f 1d cd 14 bd 5d 4f dd 3e 7e 30 b7 be
       0.5400605 -0.036328424 0.43224612 -0.35779184
000130 62 bf a1 3d 1b 95 0a be 9b e9 b7 3d 70 74 f0 3c
       0.078978315 -0.13533442 0.089801036 0.029352397
000140 71 ed 47 3e aa 0f 0a 3b 7b 71 b7 3c 72 35 e4 3d
       0.1952417 0.0021066465 0.022392979 0.111430064
000150 75 7e 19 3e 4a 41 43 3d d8 5f b3 be 56 ef 93 be
       0.14989646 0.047669686 -0.3503406 -0.28893536
000160 b6 d1 42 bc ee 1c af bd 06 57 ca 3e 10 d1 91 be
       -0.011890819 -0.0855044 0.3951952 -0.28479815
000170 cc 4e 5f be fb 07 82 bd 1c a1 93 be 26 1e 2d bc
       -0.21807402 -0.063491784 -0.28833854 -0.01056627
000180 0f b6 ea 3d 12 49 f4 bd c2 6f b8 be ac 89 4e 3e
       0.11460506 -0.119279996 -0.36022764 0.20169705
000190 9e 68 a6 3c cd fc 7c 3e 45 91 0a be 38 e0 b3 bd
       0.020313557 0.24705811 -0.13531978 -0.08783001
0001a0 34 67 65 3e 0c fa ba 3d 66 6a 38 3e b9 ae 14 bd
       0.2240265 0.09129724 0.18009338 -0.03629944
0001b0 fc 4b 1b bd a6 3e e5 3d a0 d6 88 be 90 dd 26 bd
       -0.03791426 0.1119359 -0.26726246 -0.040738642
0001c0 f1 eb a8 3d e7 95 25 bc 2b d7 88 3d d5 5d 12 3e
       0.08248127 -0.01010654 0.06681665 0.14293607
0001d0 e3 43 05 be 8c 79 a1 bd 5c 1e 84 3d a7 2c f9 bd
       -0.13014178 -0.07884511 0.06451103 -0.1216672
0001e0 57 d6 21 3e 68 ce e6 3d 9f b8 02 be 22 51 cf bc
       0.1580442 0.112698376 -0.1276574 -0.025307242
0001f0 63 60 14 3e 59 23 e4 ba 7b 69 5d bd 67 d5 72 3d
       0.14489894 -0.0017405554 -0.054055672 0.059285548
000200 70 67 0f be 87 0a c8 be 7c df 49 bc a4 aa aa 3d
       -0.14004302 -0.39070532 -0.012321349 0.08333328
000210 70 f5 07 be 48 a9 92 3d ce 33 bb bd 70 e1 95 bd
       -0.1327722 0.07161194 -0.0914074 -0.073183894
000220 3e 15 43 3d 60 f2 95 3d 34 8d a7 3e 1b 34 d7 3c
       0.04762768 0.0732162 0.32724917 0.026269963
000230 4a 5d 00 be f1 c8 a5 bd 05 8d 0c 3e 74 55 ed bd
       -0.12535587 -0.08094967 0.1372567 -0.115885645
000240 78 dc 84 bd 0e f8 16 bd 29 ea f8 bb 53 fa 07 3d
       -0.064873636 -0.036857657 -0.0075962734 0.033197712
000250 66 63 5f 3c 97 74 3f bc f2 d5 28 3c 13 81 af bc
       0.013634538 -0.011685512 0.010304915 -0.021423852
000260 77 d5 da bd a3 15 ef 3d 99 20 92 bc 10 cb a7 3d
       -0.106852464 0.11674049 -0.01783781 0.08193028
000270 bc 79 76 bd 13 1a 89 bc 21 a7 4d be 67 ee d3 3d
       -0.06017469 -0.016736066 -0.20083286 0.10348206
000280 ac a8 89 bd c5 8d f1 3c 64 85 a1 bd 1a a0 db ba
       -0.06721625 0.029486546 -0.0788677 -0.0016756088
000290 ea bd 85 bd 6a 06 a4 3d 7b ba 13 bd a4 06 41 bd
       -0.06530364 0.08009036 -0.036066514 -0.047125474
0002a0 db 2c 92 bd bf 54 f5 bd 54 9f d4 3c f6 74 b2 3d
       -0.07137462 -0.11979055 0.02595488 0.08713715
0002b0 cd c3 87 3a e9 61 be bc fe 84 be bd b0 8e 8b bd
       0.0010358036 -0.023240047 -0.0930271 -0.06814325
0002c0 3f 93 35 3e 1a 11 c9 bd 06 62 1d 3f 35 7d fb bd
       0.17731951 -0.09817715 0.61477697 -0.12279741
0002d0 bb 94 59 bd 5b eb 41 be c3 d2 c4 3e 6a a6 bd 3e
       -0.053120356 -0.18937437 0.38442048 0.37041026
0002e0 44 f0 1b bd da 9f 6d 3e 47 3a 7c be 17 65 c4 3e
       -0.038070932 0.2320551 -0.24631606 0.38358375
0002f0 c7 b3 11 bd cb 1b 91 3d de 00 0d bd 1e ad f8 3c
       -0.03557184 0.07085379 -0.034424655 0.030355986
000300 3e 92 c8 bd a9 83 1b be 38 b1 07 3e 6a b5 5a 3e
       -0.097935185 -0.15186943 0.13251197 0.21358266
000310 d6 f8 7c 3e 7c dd fd 3d d0 88 57 bd 46 c5 b5 be
       0.24704298 0.123957604 -0.05262071 -0.3550207
000320 f8 ee d0 3d 0d fe 8d bd 07 89 5b 3e 18 1d 80 3e
       0.1020183 -0.06933222 0.2143899 0.25022197
000330 7e af 0e 3d 47 0d 12 bb 19 64 b3 bd e8 ea 56 be
       0.03483533 -0.0022285746 -0.087593265 -0.20988047
000340 38 fd 72 3c ba ca 35 be 49 94 b2 bc 93 4f 4b be
       0.01483088 -0.17753115 -0.021799223 -0.19854574
000350 a1 ad 9e 3c f7 56 ac bc 42 d8 32 3d f4 9d b0 3d
       0.019369902 -0.021037562 0.04366327 0.08623877
000360 d1 0c c5 3d 65 d9 6e be e9 29 fc 3d 83 bc 5f bd
       0.09621585 -0.23325117 0.12312681 -0.05462314
000370 45 7e 10 3e 3d 38 9d bc 43 fb ae 3d 1d 91 bf 3d
       0.14110668 -0.019191856 0.08544018 0.0935385
000380 e3 b8 5f be 1c 85 44 3e 3e 3e 86 3d 8f 4e 0d 3e
       -0.21847872 0.19191402 0.065548405 0.13799499
000390 a8 93 06 bd 04 a1 f0 3d 48 3d 41 bd e2 3b ca 3d
       -0.03285566 0.11749461 -0.047177583 0.09874703
0003a0 68 11 22 3d 44 c5 46 3e 9b 68 42 3d a3 d5 a5 bd
       0.03956738 0.19411188 0.04746304 -0.080973886
0003b0 03 9b de 3d 0e 8d 02 3d e8 61 9d bd 1b 0a 69 3d
       0.1086941 0.0318728 -0.0768469 0.056894403
0003c0 65 e1 42 be 75 9c 48 be a4 5d 9c 3e 1b c3 9a bc
       -0.19031294 -0.19590934 0.30540192 -0.018891862
0003d0 83 90 5d 3e 05 bc c1 be c6 21 76 3b 42 bb cd be
       0.21637158 -0.3783876 0.0037556752 -0.4018193
0003e0 55 1c 10 3d d0 08 aa bc 1d 3f 67 3e 13 aa b2 3d
       0.03518327 -0.020756155 0.2258267 0.08723845
0003f0 5c cf 11 3e d3 f5 04 be 07 2c 79 bd 22 ab 3d be
       0.14239258 -0.129844 -0.060833003 -0.18522313

z_linear.bias f4 [33]
000000 b8 02 0f be cf 38 b9 bd c9 68 15 be 45 e2 e8 3d
       -0.13965881 -0.090440385 -0.14590754 0.113712825
000010 fd 61 d5 bd 34 33 27 bd 27 79 83 bd 53 e3 c1 bd
       -0.104190804 -0.040820315 -0.06419592 -0.09467187
000020 5c 12 14 be 43 c0 23 3e 21 b2 53 be 08 d1 06 3d
       -0.14460129 0.15991311 -0.2067342 0.03291419
000030 16 b1 27 be 6b 67 d1 3d 0c ec e5 3d 3c c2 2d ba
       -0.16376147 0.102248035 0.11226663 -0.00066283694
000040 2d 0b 84 3c 8c fb 33 3c f2 ce 8a bd 37 f5 0b bd
       0.01611861 0.010985266 -0.06777753 -0.034169402
000050 f2 27 59 bd 9d cd af bd 85 7b c3 3d fb 63 50 3d
       -0.05301661 -0.085841395 0.09545044 0.0508766
000060 6f 79 21 be 7f 43 26 bd 89 60 32 bd 89 cc f1 bd
       -0.1576898 -0.040591713 -0.043549094 -0.1180659
000070 6b 1a aa bd 43 56 c3 3c 41 76 ac 3d 3a 50 e9 3d
       -0.0830582 0.023844844 0.08420993 0.11392255
000080 ec 72 b4 bd
       -0.08810982

out_linear.weight f4 [10, 33]
000000 02 2e 81 bd 42 7a 32 bd f3 f8 6a bd 7f 8e a7 3d
       -0.063076034 -0.043573625 -0.057366323 0.08181476
000010 51 a1 e6 3d ce 5b e4 3b 84 cc 55 be 09 51 bf 3d
       0.112612374 0.006968952 -0.20878798 0.09341628
000020 89 58 2f 3d a3 4b 98 3d d5 e6 fc bd 7b ee e8 bb
       0.042809043 0.074363016 -0.12348715 -0.007108507
000030 b0 9d 7b be 0a d7 16 3d fc a4 30 bd 41 44 f3 3d
       -0.24571872 0.03682617 -0.04312609 0.11878253
000040 61 d1 96 bd b7 9b 5b bc 97 96 02 be fc 0d 9a be
       -0.073641546 -0.0134038245 -0.12752758 -0.30088794
000050 23 ac bd 3c b2 1d 8d 3c d7 73 02 be 2a f9 4c bd
       0.02315337 0.017226074 -0.12739502 -0.05004231
000060 55 e0 75 bd 93 57 ae bd 1d b4 50 bd 7c 14 36 be
       -0.060028393 -0.08512797 -0.05095302 -0.17781252
000070 06 60 16 bd db a1 f5 bd 5c f4 80 bd 68 7c 16 3d
       -0.03671267 -0.11993762 -0.06296608 0.036739737
000080 c3 4c 94 3d 51 6c f2 bd 97 74 bc bb 60 c2 38 3b
       0.07241204 -0.11837066 -0.0057512033 0.0028192028
000090 2d 15 31 3c 8f ec 5e 3d 67 dc 7c bc e0 4f d9 3c
       0.010808271 0.05442482 -0.015433407 0.026527345
0000a0 1b 01 25 3d e8 29 45 bc e1 eb 3d bd 59 73 49 bd
       0.040284257 -0.012033917 -0.04636753 -0.04918227
0000b0 7c b2 66 3c 73 c8 1d 3d 87 47 07 3c 59 f6 93 bc
       0.01408064 0.03852124 0.0082568 -0.018061804
0000c0 a9 51 fe 3c 85 b7 a6 bb 45 73 20 bd 5e e4 4a 3d
       0.031044798 -0.005087795 -0.03917243 0.049534194
0000d0 ac fe d3 bc 32 43 7d bd 02 17 33 bd e7 24 e1 bc
       -0.025878273 -0.06183166 -0.043723114 -0.027483417
0000e0 54 7e 93 bc e6 19 f0 bc 8a d8 a4 bb a5 fe 76 3c
       -0.018004574 -0.029309224 -0.0050306963 0.01507536
0000f0 70 4f fb 3e 8c 3a f5 3d fa f1 70 3d aa 34 37 bc
       0.49084044 0.119740576 0.058824517 -0.01118199
000100 42 1d 62 bc 4b c4 2a bb 95 51 ea 3b d9 81 8e 3c
       -0.013800921 -0.002605694 0.0071508386 0.0173959
000110 02 bf 96 3c 62 d8 52 be 1e 1d be 3c da a8 15 3e
       0.018401626 -0.20590356 0.023207244 0.14615193
000120 9b fa b3 bc 17 7d 21 3e 08 67 3f 3d ab b7 78 3e
       -0.021970084 0.15770374 0.046729118 0.24288814
000130 65 f3 d2 bc c9 f3 16 be 26 7b 45 bc 7d d5 98 3d
       -0.025750825 -0.14741434 -0.012053287 0.07462595
000140 d1 8d bb bc ae 26 0a 3e 9e 74 6e bc 78 9f 14 bd
       -0.022894772 0.13491318 -0.014554171 -0.036284894
000150 7f 2b 99 3d 92 84 0d 3d c5 d2 89 3d 1c b0 2c bd
       0.07478999 0.034550257 0.06729654 -0.04216014
000160 64 9f 7c 3c 04 e4 a5 3e 83 22 b5 be 9e bb 4c 3c
       0.015418861 0.32400525 -0.35377893 0.012495903
000170 d2 2e 51 3e 75 38 ee 3d b2 eb f5 3d a4 53 d1 3d
       0.20428017 0.11631862 0.12007846 0.10221031
000180 42 a9 00 3e bf 3a 24 3e f0 ac 47 be 84 2b 00 be
       0.12564567 0.16038035 -0.19499564 -0.125166
000190 ca 66 b5 3c 80 f2 eb 3c b7 d2 09 3c 02 3e 7b 3d
       0.02214374 0.028802156 0.008412055 0.061338432
0001a0 da 44 2e bd b2 ee c7 bc 5f a7 10 be d7 df b5 bc
       -0.04254613 -0.024405811 -0.14126347 -0.022201462
0001b0 0f 01 33 3d 9f 6e ec 3e 47 4e 0e 3c 3e 43 2d 3e
       0.04370218 0.46178147 0.008685655 0.16920182
0001c0 14 01 60 bc b7 03 19 3c e8 bb 74 bd 16 27 b9 3d
       -0.013672132 0.009339265 -0.059749514 0.09040658
0001d0 ad 09 88 bd ea a6 30 3e c3 b0 b6 3a cb 88 05 be
       -0.066424705 0.17251173 0.0013938177 -0.13040464
0001e0 a7 bf 66 bd 95 b7 88 3d 02 75 c4 bd 5d 73 4a bd
       -0.056335118 0.066756405 -0.0959263 -0.049426425
0001f0 86 31 fe bb 3d 21 30 3e de e5 44 be b0 3c 30 3c
       -0.0077573685 0.1720018 -0.19228312 0.0107566565
000200 b3 7d b8 3d 63 e7 5f bd 4d 6c 8d 3c 48 79 ca bd
       0.0900835 -0.054664027 0.017263556 -0.09886414
000210 6f 80 09 3e 33 76 af 3d d0 83 24 bd 0b ce b8 bc
       0.134279 0.085674666 -0.04016477 -0.022559186
000220 df 9e c4 bd cd 35 4c 3d 38 4e b9 3d f3 31 9f 3d
       -0.09600615 0.049855996 0.09048122 0.07773199
000230 96 71 99 bb de 2e b2 3d 1e bd 15 be 96 08 51 3e
       -0.00468273 0.087003455 -0.14622924 0.20413432
000240 79 cc d4 bc 55 b9 f1 be da cb 9f 3d bd 33 0a 3e
       -0.025976406 -0.4721171 0.078025535 0.13496299
000250 39 99 49 bd be 54 57 3d ad c4 0a 3e 63 07 86 3d
       -0.04921839 0.05257105 0.13551588 0.06544378
000260 97 c9 c3 bd 20 24 4d be d5 cb 89 bc 18 fc aa bd
       -0.095599346 -0.20033312 -0.016820827 -0.08348864
000270 b0 c1 16 3e 66 52 20 3e 75 e5 31 3d 58 77 a1 bd
       0.14722323 0.15656433 0.043431718 -0.07884091
000280 ab 1b 0c be 49 4f b5 bc 8f e4 77 3c 70 fe 2b bd
       -0.1368243 -0.022132533 0.015130176 -0.041990697
000290 40 04 04 be 8a 7c 0a 3f 0a 04 02 bd cc 36 08 ba
       -0.12892246 0.5409628 -0.031742133 -0.00051961537
0002a0 b9 ae 1d 39 ca 79 11 bc df 0e 20 be 3e 4a 19 3c
       0.00015037776 -0.008879134 -0.15630673 0.00935608
0002b0 b0 1c aa 3d 0a 7a 2e 3c 7f 4f 1f bd 7d a0 b3 3c
       0.08306253 0.010649214 -0.038894173 0.021927113
0002c0 43 df df bc bc 9a 81 3c e7 a3 f7 3c eb 72 a6 bc
       -0.02732814 0.015820853 0.030229522 -0.020318469
0002d0 7c f8 2a bc f4 15 3b 3c cf a7 d0 3d 07 d9 d6 3c
       -0.01043522 0.011418808 0.10188257 0.026226534
0002e0 cd b9 61 bb 37 8b 4b be 1e 91 16 bd dc 60 bc 3c
       -0.0034443021 -0.19877325 -0.03675949 0.022995405
0002f0 1f 97 93 bc 00 18 ef 3c fb c1 a7 3c d5 a8 d4 bc
       -0.018016396 0.029186249 0.02047824 -0.025959412
000300 0a 5f 6b 3c bb 1c b7 bd da da 30 3d 17 6d 38 be
       0.014365921 -0.08941027 0.043177463 -0.18010364
000310 f1 3c 99 3c d8 e1 eb bc 16 dc 51 3c b0 e2 88 be
       0.018705817 -0.028794214 0.01280882 -0.2673545
000320 51 34 c7 3d 56 61 2b 3e 4b 6b f7 ba cd 11 18 3d
       0.097267754 0.1673635 -0.001887658 0.03712635
000330 31 e8 d6 3d 4f e5 a8 bd cb 74 bc bd fa 52 86 3d
       0.10493506 -0.08246862 -0.09201964 0.06558795
000340 a7 50 4a 3b c4 ea 3e be 30 aa 32 be 79 ea 9a 3e
       0.0030870826 -0.18644243 -0.17447734 0.30257013
000350 47 45 07 3d de 9d 85 be 64 64 d8 bd 09 cd ff bd
       0.033025052 -0.26097006 -0.10566023 -0.12490279
000360 b5 bf 01 be 61 1d 0c 3e 3f 83 06 3d ae d0 33 3e
       -0.12670787 0.13683082 0.03284001 0.17560074
000370 1e 42 88 3d 81 e7 d2 bd bc 2c 7a 3e bd aa a9 3d
       0.06653236 -0.10298062 0.24431127 0.08284519
000380 5c 11 ed bc 5a 0d d0 3d 31 5d 6f bb 74 48 83 3d
       -0.028938942 0.101587966 -0.0036524052 0.06410304
000390 1b ea 76 bd 35 35 ce bd 9a 85 75 3e 11 27 bf be
       -0.060281854 -0.10068742 0.23976746 -0.37334493
0003a0 e0 15 08 3d 9a 41 f8 3b 02 46 33 3d 64 19 c0 be
       0.033223987 0.0075761797 0.043767937 -0.37519372
0003b0 b4 cb 98 bd c6 fa 5b bc 17 20 be bd 02 3c 09 bd
       -0.07460728 -0.013426488 -0.092834644 -0.033504494
0003c0 ea 81 55 3c 76 ae 1a bd e2 13 32 bb e1 f1 5f 3d
       0.013031462 -0.037764035 -0.0027172496 0.054674033
0003d0 ae c8 2a bd 25 81 bd 3d 88 10 a7 bc 60 97 1c 3d
       -0.04169529 0.09253148 -0.020393625 0.0382303
0003e0 2d 60 2f bd ce 30 29 bd 41 e0 b4 bc 73 e8 1f bc
       -0.04281633 -0.04130631 -0.022079589 -0.00976001
0003f0 24 b6 06 3d 2c 65 46 bc 4a a4 1d 3d d3 66 5e 3c
       0.032888547 -0.012109082 0.038486756 0.01357432

out_linear.bias f4 [10]
000000 ac 62 9a bd ed 96 aa 3e ae bc 2f 3a 48 34 d1 3d
       -0.075383514 0.33318272 0.00067038357 0.1021505
000010 50 17 2f bd 51 64 47 3e 2b 53 0e 3d 82 12 d7 3c
       -0.042746842 0.19471861 0.034747284 0.026253942
000020 bc 9b 25 3d 64 bb 74 3e
       0.040431723 0.23899609
